…
            "Downloading https://ultralytics.com/assets/Arial.ttf to /root/.config/Ultralytics/Arial.ttf...\n",
            "100% 755k/755k [00:00<00:00, 24.7MB/s]\n",
            "Downloading https://github.com/ultralytics/yolov5/releases/download/v6.1/yolov5l.pt to yolov5l.pt...\n",
            "100% 89.3M/89.3M [00:02<00:00, 39.0MB/s]\n",
            "\n",
            "Overriding model.yaml nc=80 with nc=6\n",
            "\n",
            "                 from  n    params  module                                  arguments                     \n",
            "  0                -1  1      7040  models.common.Conv                      [3, 64, 6, 2, 2]              \n",
            "  1                -1  1     73984  models.common.Conv                      [64, 128, 3, 2]               \n",
            "  2                -1  3    156928  models.common.C3                        [128, 128, 3]                 \n",
            "  3                -1  1    295424  models.common.Conv                      [128, 256, 3, 2]              \n",
            "  4                -1  6   1118208  models.common.C3                        [256, 256, 6]                 \n",
            "  5                -1  1   1180672  models.common.Conv                      [256, 512, 3, 2]              \n",
            "  6                -1  9   6433792  models.common.C3                        [512, 512, 9]                 \n",
            "  7                -1  1   4720640  models.common.Conv                      [512, 1024, 3, 2]             \n",
            "  8                -1  3   9971712  models.common.C3                        [1024, 1024, 3]               \n",
            "  9                -1  1   2624512  models.common.SPPF                      [1024, 1024, 5]               \n",
            " 10                -1  1    525312  models.common.Conv                      [1024, 512, 1, 1]             \n",
            " 11                -1  1         0  torch.nn.modules.upsampling.Upsample    [None, 2, 'nearest']          \n",
            " 12           [-1, 6]  1         0  models.common.Concat                    [1]                           \n",
            " 13                -1  3   2757632  models.common.C3                        [1024, 512, 3, False]         \n",
            " 14                -1  1    131584  models.common.Conv                      [512, 256, 1, 1]              \n",
            " 15                -1  1         0  torch.nn.modules.upsampling.Upsample    [None, 2, 'nearest']          \n",
            " 16           [-1, 4]  1         0  models.common.Concat                    [1]                           \n",
            " 17                -1  3    690688  models.common.C3                        [512, 256, 3, False]          \n",
            " 18                -1  1    590336  models.common.Conv                      [256, 256, 3, 2]              \n",
            " 19          [-1, 14]  1         0  models.common.Concat                    [1]                           \n",
            " 20                -1  3   2495488  models.common.C3                        [512, 512, 3, False]          \n",
            " 21                -1  1   2360320  models.common.Conv                      [512, 512, 3, 2]              \n",
            " 22          [-1, 10]  1         0  models.common.Concat                    [1]                           \n",
            " 23                -1  3   9971712  models.common.C3                        [1024, 1024, 3, False]        \n",
            " 24      [17, 20, 23]  1     59235  models.yolo.Detect                      [6, [[10, 13, 16, 30, 33, 23], [30, 61, 62, 45, 59, 119], [116, 90, 156, 198, 373, 326]], [256, 512, 1024]]\n",
            "YOLOv5l summary: 468 layers, 46165219 parameters, 46165219 gradients\n",
            "\n",
            "Transferred 606/613 items from yolov5l.pt\n",
            "\u001b[34m\u001b[1mAMP: \u001b[0mchecks passed ✅\n",
…
